…
/home/azureuser_1/meta_rl/Minigrid/minigrid/torch-ac/rl-starter-files/scripts/train.py --algo ppo --env MiniGrid-LavaCrossingS9N1-v0 --model DSLP_Crossings_Trigger_60k_128_neurons --frames 60000000

Namespace(algo='ppo', batch_size=256, clip_eps=0.2, discount=0.99, entropy_coef=0.01, env='MiniGrid-LavaCrossingS9N1-v0', epochs=4, frames=60000000, frames_per_proc=None, gae_lambda=0.95, log_interval=1, lr=0.001, max_grad_norm=0.5, mem=False, model='DSLP_Crossings_Trigger_60k_128_neurons', optim_alpha=0.99, optim_eps=1e-08, procs=65, recurrence=1, save_interval=10, seed=1, text=False, value_loss_coef=0.5)

Device: cpu

Environments loaded

Training status loaded

Observations preprocessor loaded
Model loaded

ACModel(
  (image_conv): Sequential(
    (0): Conv2d(3, 16, kernel_size=(2, 2), stride=(1, 1))
    (1): ReLU()
    (2): MaxPool2d(kernel_size=(2, 2), stride=(2, 2), padding=0, dilation=1, ceil_mode=False)
    (3): Conv2d(16, 32, kernel_size=(2, 2), stride=(1, 1))
    (4): ReLU()
    (5): Conv2d(32, 64, kernel_size=(2, 2), stride=(1, 1))
    (6): ReLU()
  )
  (actor): Sequential(
    (0): Linear(in_features=64, out_features=128, bias=True)
    (1): Tanh()
    (2): Linear(in_features=64, out_features=7, bias=True)
  )
  (critic): Sequential(
    (0): Linear(in_features=64, out_features=64, bias=True)
    (1): Tanh()
    (2): Linear(in_features=64, out_features=1, bias=True)
  )
)

Optimizer loaded

/home/azureuser_1/meta_rl/Minigrid/minigrid/torch-ac/rl-starter-files/scripts/train.py --algo ppo --env MiniGrid-LavaCrossingS9N1-v0 --model DSLP_Crossings_Trigger_60k_128_neurons --frames 60000000

Namespace(algo='ppo', batch_size=256, clip_eps=0.2, discount=0.99, entropy_coef=0.01, env='MiniGrid-LavaCrossingS9N1-v0', epochs=4, frames=60000000, frames_per_proc=None, gae_lambda=0.95, log_interval=1, lr=0.001, max_grad_norm=0.5, mem=False, model='DSLP_Crossings_Trigger_60k_128_neurons', optim_alpha=0.99, optim_eps=1e-08, procs=65, recurrence=1, save_interval=10, seed=1, text=False, value_loss_coef=0.5)

Device: cpu

Environments loaded

Training status loaded

Observations preprocessor loaded
Model loaded

ACModel(
  (image_conv): Sequential(
    (0): Conv2d(3, 16, kernel_size=(2, 2), stride=(1, 1))
    (1): ReLU()
    (2): MaxPool2d(kernel_size=(2, 2), stride=(2, 2), padding=0, dilation=1, ceil_mode=False)
    (3): Conv2d(16, 32, kernel_size=(2, 2), stride=(1, 1))
    (4): ReLU()
    (5): Conv2d(32, 64, kernel_size=(2, 2), stride=(1, 1))
    (6): ReLU()
  )
  (actor): Sequential(
    (0): Linear(in_features=64, out_features=128, bias=True)
    (1): Tanh()
    (2): Linear(in_features=64, out_features=7, bias=True)
  )
  (critic): Sequential(
    (0): Linear(in_features=64, out_features=128, bias=True)
    (1): Tanh()
    (2): Linear(in_features=64, out_features=1, bias=True)
  )
)

Optimizer loaded

/home/azureuser_1/meta_rl/Minigrid/minigrid/torch-ac/rl-starter-files/scripts/train.py --algo ppo --env MiniGrid-LavaCrossingS9N1-v0 --model DSLP_Crossings_Trigger_60k_128_neurons --frames 60000000

Namespace(algo='ppo', batch_size=256, clip_eps=0.2, discount=0.99, entropy_coef=0.01, env='MiniGrid-LavaCrossingS9N1-v0', epochs=4, frames=60000000, frames_per_proc=None, gae_lambda=0.95, log_interval=1, lr=0.001, max_grad_norm=0.5, mem=False, model='DSLP_Crossings_Trigger_60k_128_neurons', optim_alpha=0.99, optim_eps=1e-08, procs=65, recurrence=1, save_interval=10, seed=1, text=False, value_loss_coef=0.5)

Device: cpu

Environments loaded

Training status loaded

Observations preprocessor loaded
Model loaded

ACModel(
  (image_conv): Sequential(
    (0): Conv2d(3, 16, kernel_size=(2, 2), stride=(1, 1))
    (1): ReLU()
    (2): MaxPool2d(kernel_size=(2, 2), stride=(2, 2), padding=0, dilation=1, ceil_mode=False)
    (3): Conv2d(16, 32, kernel_size=(2, 2), stride=(1, 1))
    (4): ReLU()
    (5): Conv2d(32, 64, kernel_size=(2, 2), stride=(1, 1))
    (6): ReLU()
  )
  (actor): Sequential(
    (0): Linear(in_features=64, out_features=128, bias=True)
    (1): Tanh()
    (2): Linear(in_features=128, out_features=7, bias=True)
  )
  (critic): Sequential(
    (0): Linear(in_features=64, out_features=128, bias=True)
    (1): Tanh()
    (2): Linear(in_features=128, out_features=1, bias=True)
  )
)

Optimizer loaded

/home/azureuser_1/meta_rl/Minigrid/minigrid/torch-ac/rl-starter-files/scripts/train.py --algo ppo --env MiniGrid-LavaCrossingS9N1-v0 --model DSLP_Crossings_Trigger_60k_128_neurons --frames 60000000

Namespace(algo='ppo', batch_size=256, clip_eps=0.2, discount=0.99, entropy_coef=0.01, env='MiniGrid-LavaCrossingS9N1-v0', epochs=4, frames=60000000, frames_per_proc=None, gae_lambda=0.95, log_interval=1, lr=0.001, max_grad_norm=0.5, mem=False, model='DSLP_Crossings_Trigger_60k_128_neurons', optim_alpha=0.99, optim_eps=1e-08, procs=65, recurrence=1, save_interval=10, seed=1, text=False, value_loss_coef=0.5)

Device: cpu

Environments loaded

Training status loaded

Observations preprocessor loaded
Model loaded

ACModel(
  (image_conv): Sequential(
    (0): Conv2d(3, 16, kernel_size=(2, 2), stride=(1, 1))
    (1): ReLU()
    (2): MaxPool2d(kernel_size=(2, 2), stride=(2, 2), padding=0, dilation=1, ceil_mode=False)
    (3): Conv2d(16, 32, kernel_size=(2, 2), stride=(1, 1))
    (4): ReLU()
    (5): Conv2d(32, 64, kernel_size=(2, 2), stride=(1, 1))
    (6): ReLU()
  )
  (actor): Sequential(
    (0): Linear(in_features=64, out_features=128, bias=True)
    (1): Tanh()
    (2): Linear(in_features=128, out_features=7, bias=True)
  )
  (critic): Sequential(
    (0): Linear(in_features=64, out_features=128, bias=True)
    (1): Tanh()
    (2): Linear(in_features=128, out_features=1, bias=True)
  )
)

Optimizer loaded

U 1 | F 008320 | FPS 0370 | D 22 | rR:μσmM 1.31 1.83 0.00 3.97 | F:μσmM 50.1 30.9 0.0 112.0 | H 1.906 | V 0.068 | pL -0.165 | vL 0.299 | ∇ 0.241
U 2 | F 016640 | FPS 0355 | D 45 | rR:μσmM 1.18 1.76 0.00 3.99 | F:μσmM 91.9 68.1 2.0 230.0 | H 1.920 | V 0.141 | pL -0.150 | vL 0.300 | ∇ 0.244
U 3 | F 024960 | FPS 0329 | D 71 | rR:μσmM 1.14 1.73 0.00 3.99 | F:μσmM 68.3 66.4 2.0 305.0 | H 1.884 | V 0.235 | pL -0.231 | vL 0.448 | ∇ 0.351
…
/home/azureuser_1/meta_rl/Minigrid/minigrid/torch-ac/rl-starter-files/scripts/train.py --algo ppo --env MiniGrid-LavaCrossingS9N1-v0 --model DSLP_Crossings_Trigger_60k_128_neurons --frames 60000000

Namespace(algo='ppo', batch_size=256, clip_eps=0.2, discount=0.99, entropy_coef=0.01, env='MiniGrid-LavaCrossingS9N1-v0', epochs=4, frames=60000000, frames_per_proc=None, gae_lambda=0.95, log_interval=1, lr=0.001, max_grad_norm=0.5, mem=False, model='DSLP_Crossings_Trigger_60k_128_neurons', optim_alpha=0.99, optim_eps=1e-08, procs=128, recurrence=1, save_interval=10, seed=1, text=False, value_loss_coef=0.5)

Device: cpu

Environments loaded

Training status loaded

Observations preprocessor loaded
Model loaded

ACModel(
  (image_conv): Sequential(
    (0): Conv2d(3, 16, kernel_size=(2, 2), stride=(1, 1))
    (1): ReLU()
    (2): MaxPool2d(kernel_size=(2, 2), stride=(2, 2), padding=0, dilation=1, ceil_mode=False)
    (3): Conv2d(16, 32, kernel_size=(2, 2), stride=(1, 1))
    (4): ReLU()
    (5): Conv2d(32, 64, kernel_size=(2, 2), stride=(1, 1))
    (6): ReLU()
  )
  (actor): Sequential(
    (0): Linear(in_features=64, out_features=128, bias=True)
    (1): Tanh()
    (2): Linear(in_features=128, out_features=7, bias=True)
  )
  (critic): Sequential(
    (0): Linear(in_features=64, out_features=128, bias=True)
    (1): Tanh()
    (2): Linear(in_features=128, out_features=1, bias=True)
  )
)

Optimizer loaded

U 11 | F 099584 | FPS 0181 | D 90 | rR:μσmM 1.54 1.93 0.00 3.99 | F:μσmM 29.4 28.5 2.0 120.0 | H 1.809 | V 0.393 | pL -0.057 | vL 0.211 | ∇ 0.700
U 12 | F 115968 | FPS 0179 | D 182 | rR:μσmM 1.29 1.85 0.00 3.99 | F:μσmM 58.3 57.5 2.0 236.0 | H 1.831 | V 0.289 | pL -0.014 | vL 0.119 | ∇ 0.564
U 13 | F 132352 | FPS 0185 | D 270 | rR:μσmM 1.16 1.80 0.00 3.99 | F:μσmM 74.2 80.5 2.0 324.0 | H 1.832 | V 0.303 | pL -0.004 | vL 0.110 | ∇ 0.484
…
